[09/23 16:09:20] eval INFO: length of testing dataset: 312
[09/23 16:09:22] eval INFO: GroupFreeDetector(
  (backbone_net): Pointnet2Backbone(
    (sa1): PointnetSAModuleVotes(
      (grouper): QueryAndGroup()
      (mlp_module): SharedMLP(
        (layer0): Conv2d(
          (conv): Conv2d(3, 64, kernel_size=(1, 1), stride=(1, 1), bias=False)
          (bn): BatchNorm2d(
            (bn): BatchNorm2d(64, eps=1e-05, momentum=0.1, affine=True, track_running_stats=True)
          )
          (activation): ReLU(inplace=True)
        )
        (layer1): Conv2d(
          (conv): Conv2d(64, 64, kernel_size=(1, 1), stride=(1, 1), bias=False)
          (bn): BatchNorm2d(
            (bn): BatchNorm2d(64, eps=1e-05, momentum=0.1, affine=True, track_running_stats=True)
          )
          (activation): ReLU(inplace=True)
        )
        (layer2): Conv2d(
          (conv): Conv2d(64, 128, kernel_size=(1, 1), stride=(1, 1), bias=False)
          (bn): BatchNorm2d(
            (bn): BatchNorm2d(128, eps=1e-05, momentum=0.1, affine=True, track_running_stats=True)
          )
          (activation): ReLU(inplace=True)
        )
      )
    )
    (sa2): PointnetSAModuleVotes(
      (grouper): QueryAndGroup()
      (mlp_module): SharedMLP(
        (layer0): Conv2d(
          (conv): Conv2d(131, 128, kernel_size=(1, 1), stride=(1, 1), bias=False)
          (bn): BatchNorm2d(
            (bn): BatchNorm2d(128, eps=1e-05, momentum=0.1, affine=True, track_running_stats=True)
          )
          (activation): ReLU(inplace=True)
        )
        (layer1): Conv2d(
          (conv): Conv2d(128, 128, kernel_size=(1, 1), stride=(1, 1), bias=False)
          (bn): BatchNorm2d(
            (bn): BatchNorm2d(128, eps=1e-05, momentum=0.1, affine=True, track_running_stats=True)
          )
          (activation): ReLU(inplace=True)
        )
        (layer2): Conv2d(
          (conv): Conv2d(128, 256, kernel_size=(1, 1), stride=(1, 1), bias=False)
          (bn): BatchNorm2d(
            (bn): BatchNorm2d(256, eps=1e-05, momentum=0.1, affine=True, track_running_stats=True)
          )
          (activation): ReLU(inplace=True)
        )
      )
    )
    (sa3): PointnetSAModuleVotes(
      (grouper): QueryAndGroup()
      (mlp_module): SharedMLP(
        (layer0): Conv2d(
          (conv): Conv2d(259, 128, kernel_size=(1, 1), stride=(1, 1), bias=False)
          (bn): BatchNorm2d(
            (bn): BatchNorm2d(128, eps=1e-05, momentum=0.1, affine=True, track_running_stats=True)
          )
          (activation): ReLU(inplace=True)
        )
        (layer1): Conv2d(
          (conv): Conv2d(128, 128, kernel_size=(1, 1), stride=(1, 1), bias=False)
          (bn): BatchNorm2d(
            (bn): BatchNorm2d(128, eps=1e-05, momentum=0.1, affine=True, track_running_stats=True)
          )
          (activation): ReLU(inplace=True)
        )
        (layer2): Conv2d(
          (conv): Conv2d(128, 256, kernel_size=(1, 1), stride=(1, 1), bias=False)
          (bn): BatchNorm2d(
            (bn): BatchNorm2d(256, eps=1e-05, momentum=0.1, affine=True, track_running_stats=True)
          )
          (activation): ReLU(inplace=True)
        )
      )
    )
    (sa4): PointnetSAModuleVotes(
      (grouper): QueryAndGroup()
      (mlp_module): SharedMLP(
        (layer0): Conv2d(
          (conv): Conv2d(259, 128, kernel_size=(1, 1), stride=(1, 1), bias=False)
          (bn): BatchNorm2d(
            (bn): BatchNorm2d(128, eps=1e-05, momentum=0.1, affine=True, track_running_stats=True)
          )
          (activation): ReLU(inplace=True)
        )
        (layer1): Conv2d(
          (conv): Conv2d(128, 128, kernel_size=(1, 1), stride=(1, 1), bias=False)
          (bn): BatchNorm2d(
            (bn): BatchNorm2d(128, eps=1e-05, momentum=0.1, affine=True, track_running_stats=True)
          )
          (activation): ReLU(inplace=True)
        )
        (layer2): Conv2d(
          (conv): Conv2d(128, 256, kernel_size=(1, 1), stride=(1, 1), bias=False)
          (bn): BatchNorm2d(
            (bn): BatchNorm2d(256, eps=1e-05, momentum=0.1, affine=True, track_running_stats=True)
          )
          (activation): ReLU(inplace=True)
        )
      )
    )
    (fp1): PointnetFPModule(
      (mlp): SharedMLP(
        (layer0): Conv2d(
          (conv): Conv2d(512, 256, kernel_size=(1, 1), stride=(1, 1), bias=False)
          (bn): BatchNorm2d(
            (bn): BatchNorm2d(256, eps=1e-05, momentum=0.1, affine=True, track_running_stats=True)
          )
          (activation): ReLU(inplace=True)
        )
        (layer1): Conv2d(
          (conv): Conv2d(256, 256, kernel_size=(1, 1), stride=(1, 1), bias=False)
          (bn): BatchNorm2d(
            (bn): BatchNorm2d(256, eps=1e-05, momentum=0.1, affine=True, track_running_stats=True)
          )
          (activation): ReLU(inplace=True)
        )
      )
    )
    (fp2): PointnetFPModule(
      (mlp): SharedMLP(
        (layer0): Conv2d(
          (conv): Conv2d(512, 256, kernel_size=(1, 1), stride=(1, 1), bias=False)
          (bn): BatchNorm2d(
            (bn): BatchNorm2d(256, eps=1e-05, momentum=0.1, affine=True, track_running_stats=True)
          )
          (activation): ReLU(inplace=True)
        )
        (layer1): Conv2d(
          (conv): Conv2d(256, 288, kernel_size=(1, 1), stride=(1, 1), bias=False)
          (bn): BatchNorm2d(
            (bn): BatchNorm2d(288, eps=1e-05, momentum=0.1, affine=True, track_running_stats=True)
          )
          (activation): ReLU(inplace=True)
        )
      )
    )
  )
  (points_obj_cls): PointsObjClsModule(
    (conv1): Conv1d(288, 288, kernel_size=(1,), stride=(1,))
    (bn1): BatchNorm1d(288, eps=1e-05, momentum=0.1, affine=True, track_running_stats=True)
    (conv2): Conv1d(288, 288, kernel_size=(1,), stride=(1,))
    (bn2): BatchNorm1d(288, eps=1e-05, momentum=0.1, affine=True, track_running_stats=True)
    (conv3): Conv1d(288, 1, kernel_size=(1,), stride=(1,))
  )
  (gsample_module): GeneralSamplingModule()
  (proposal_head): PredictHead(
    (conv1): Conv1d(288, 288, kernel_size=(1,), stride=(1,))
    (bn1): BatchNorm1d(288, eps=1e-05, momentum=0.1, affine=True, track_running_stats=True)
    (conv2): Conv1d(288, 288, kernel_size=(1,), stride=(1,))
    (bn2): BatchNorm1d(288, eps=1e-05, momentum=0.1, affine=True, track_running_stats=True)
    (objectness_scores_head): Conv1d(288, 1, kernel_size=(1,), stride=(1,))
    (center_residual_head): Conv1d(288, 3, kernel_size=(1,), stride=(1,))
    (heading_class_head): Conv1d(288, 1, kernel_size=(1,), stride=(1,))
    (heading_residual_head): Conv1d(288, 1, kernel_size=(1,), stride=(1,))
    (size_class_head): Conv1d(288, 22, kernel_size=(1,), stride=(1,))
    (size_residual_head): Conv1d(288, 66, kernel_size=(1,), stride=(1,))
    (sem_cls_scores_head): Conv1d(288, 22, kernel_size=(1,), stride=(1,))
  )
  (decoder_key_proj): Conv1d(288, 288, kernel_size=(1,), stride=(1,))
  (decoder_query_proj): Conv1d(288, 288, kernel_size=(1,), stride=(1,))
  (decoder_self_posembeds): ModuleList(
    (0): PositionEmbeddingLearned(
      (position_embedding_head): Sequential(
        (0): Conv1d(6, 288, kernel_size=(1,), stride=(1,))
        (1): BatchNorm1d(288, eps=1e-05, momentum=0.1, affine=True, track_running_stats=True)
        (2): ReLU(inplace=True)
        (3): Conv1d(288, 288, kernel_size=(1,), stride=(1,))
      )
    )
    (1): PositionEmbeddingLearned(
      (position_embedding_head): Sequential(
        (0): Conv1d(6, 288, kernel_size=(1,), stride=(1,))
        (1): BatchNorm1d(288, eps=1e-05, momentum=0.1, affine=True, track_running_stats=True)
        (2): ReLU(inplace=True)
        (3): Conv1d(288, 288, kernel_size=(1,), stride=(1,))
      )
    )
    (2): PositionEmbeddingLearned(
      (position_embedding_head): Sequential(
        (0): Conv1d(6, 288, kernel_size=(1,), stride=(1,))
        (1): BatchNorm1d(288, eps=1e-05, momentum=0.1, affine=True, track_running_stats=True)
        (2): ReLU(inplace=True)
        (3): Conv1d(288, 288, kernel_size=(1,), stride=(1,))
      )
    )
    (3): PositionEmbeddingLearned(
      (position_embedding_head): Sequential(
        (0): Conv1d(6, 288, kernel_size=(1,), stride=(1,))
        (1): BatchNorm1d(288, eps=1e-05, momentum=0.1, affine=True, track_running_stats=True)
        (2): ReLU(inplace=True)
        (3): Conv1d(288, 288, kernel_size=(1,), stride=(1,))
      )
    )
    (4): PositionEmbeddingLearned(
      (position_embedding_head): Sequential(
        (0): Conv1d(6, 288, kernel_size=(1,), stride=(1,))
        (1): BatchNorm1d(288, eps=1e-05, momentum=0.1, affine=True, track_running_stats=True)
        (2): ReLU(inplace=True)
        (3): Conv1d(288, 288, kernel_size=(1,), stride=(1,))
      )
    )
    (5): PositionEmbeddingLearned(
      (position_embedding_head): Sequential(
        (0): Conv1d(6, 288, kernel_size=(1,), stride=(1,))
        (1): BatchNorm1d(288, eps=1e-05, momentum=0.1, affine=True, track_running_stats=True)
        (2): ReLU(inplace=True)
        (3): Conv1d(288, 288, kernel_size=(1,), stride=(1,))
      )
    )
  )
  (decoder_cross_posembeds): ModuleList(
    (0): PositionEmbeddingLearned(
      (position_embedding_head): Sequential(
        (0): Conv1d(3, 288, kernel_size=(1,), stride=(1,))
        (1): BatchNorm1d(288, eps=1e-05, momentum=0.1, affine=True, track_running_stats=True)
        (2): ReLU(inplace=True)
        (3): Conv1d(288, 288, kernel_size=(1,), stride=(1,))
      )
    )
    (1): PositionEmbeddingLearned(
      (position_embedding_head): Sequential(
        (0): Conv1d(3, 288, kernel_size=(1,), stride=(1,))
        (1): BatchNorm1d(288, eps=1e-05, momentum=0.1, affine=True, track_running_stats=True)
        (2): ReLU(inplace=True)
        (3): Conv1d(288, 288, kernel_size=(1,), stride=(1,))
      )
    )
    (2): PositionEmbeddingLearned(
      (position_embedding_head): Sequential(
        (0): Conv1d(3, 288, kernel_size=(1,), stride=(1,))
        (1): BatchNorm1d(288, eps=1e-05, momentum=0.1, affine=True, track_running_stats=True)
        (2): ReLU(inplace=True)
        (3): Conv1d(288, 288, kernel_size=(1,), stride=(1,))
      )
    )
    (3): PositionEmbeddingLearned(
      (position_embedding_head): Sequential(
        (0): Conv1d(3, 288, kernel_size=(1,), stride=(1,))
        (1): BatchNorm1d(288, eps=1e-05, momentum=0.1, affine=True, track_running_stats=True)
        (2): ReLU(inplace=True)
        (3): Conv1d(288, 288, kernel_size=(1,), stride=(1,))
      )
    )
    (4): PositionEmbeddingLearned(
      (position_embedding_head): Sequential(
        (0): Conv1d(3, 288, kernel_size=(1,), stride=(1,))
        (1): BatchNorm1d(288, eps=1e-05, momentum=0.1, affine=True, track_running_stats=True)
        (2): ReLU(inplace=True)
        (3): Conv1d(288, 288, kernel_size=(1,), stride=(1,))
      )
    )
    (5): PositionEmbeddingLearned(
      (position_embedding_head): Sequential(
        (0): Conv1d(3, 288, kernel_size=(1,), stride=(1,))
        (1): BatchNorm1d(288, eps=1e-05, momentum=0.1, affine=True, track_running_stats=True)
        (2): ReLU(inplace=True)
        (3): Conv1d(288, 288, kernel_size=(1,), stride=(1,))
      )
    )
  )
  (decoder): ModuleList(
    (0): TransformerDecoderLayer(
      (self_attn): MultiheadAttention(
        (out_proj): Linear(in_features=288, out_features=288, bias=True)
      )
      (multihead_attn): MultiheadAttention(
        (out_proj): Linear(in_features=288, out_features=288, bias=True)
      )
      (linear1): Linear(in_features=288, out_features=2048, bias=True)
      (dropout): Dropout(p=0.1, inplace=False)
      (linear2): Linear(in_features=2048, out_features=288, bias=True)
      (norm1): LayerNorm((288,), eps=1e-05, elementwise_affine=True)
      (norm2): LayerNorm((288,), eps=1e-05, elementwise_affine=True)
      (norm3): LayerNorm((288,), eps=1e-05, elementwise_affine=True)
      (dropout1): Dropout(p=0.1, inplace=False)
      (dropout2): Dropout(p=0.1, inplace=False)
      (dropout3): Dropout(p=0.1, inplace=False)
      (self_posembed): PositionEmbeddingLearned(
        (position_embedding_head): Sequential(
          (0): Conv1d(6, 288, kernel_size=(1,), stride=(1,))
          (1): BatchNorm1d(288, eps=1e-05, momentum=0.1, affine=True, track_running_stats=True)
          (2): ReLU(inplace=True)
          (3): Conv1d(288, 288, kernel_size=(1,), stride=(1,))
        )
      )
      (cross_posembed): PositionEmbeddingLearned(
        (position_embedding_head): Sequential(
          (0): Conv1d(3, 288, kernel_size=(1,), stride=(1,))
          (1): BatchNorm1d(288, eps=1e-05, momentum=0.1, affine=True, track_running_stats=True)
          (2): ReLU(inplace=True)
          (3): Conv1d(288, 288, kernel_size=(1,), stride=(1,))
        )
      )
    )
    (1): TransformerDecoderLayer(
      (self_attn): MultiheadAttention(
        (out_proj): Linear(in_features=288, out_features=288, bias=True)
      )
      (multihead_attn): MultiheadAttention(
        (out_proj): Linear(in_features=288, out_features=288, bias=True)
      )
      (linear1): Linear(in_features=288, out_features=2048, bias=True)
      (dropout): Dropout(p=0.1, inplace=False)
      (linear2): Linear(in_features=2048, out_features=288, bias=True)
      (norm1): LayerNorm((288,), eps=1e-05, elementwise_affine=True)
      (norm2): LayerNorm((288,), eps=1e-05, elementwise_affine=True)
      (norm3): LayerNorm((288,), eps=1e-05, elementwise_affine=True)
      (dropout1): Dropout(p=0.1, inplace=False)
      (dropout2): Dropout(p=0.1, inplace=False)
      (dropout3): Dropout(p=0.1, inplace=False)
      (self_posembed): PositionEmbeddingLearned(
        (position_embedding_head): Sequential(
          (0): Conv1d(6, 288, kernel_size=(1,), stride=(1,))
          (1): BatchNorm1d(288, eps=1e-05, momentum=0.1, affine=True, track_running_stats=True)
          (2): ReLU(inplace=True)
          (3): Conv1d(288, 288, kernel_size=(1,), stride=(1,))
        )
      )
      (cross_posembed): PositionEmbeddingLearned(
        (position_embedding_head): Sequential(
          (0): Conv1d(3, 288, kernel_size=(1,), stride=(1,))
          (1): BatchNorm1d(288, eps=1e-05, momentum=0.1, affine=True, track_running_stats=True)
          (2): ReLU(inplace=True)
          (3): Conv1d(288, 288, kernel_size=(1,), stride=(1,))
        )
      )
    )
    (2): TransformerDecoderLayer(
      (self_attn): MultiheadAttention(
        (out_proj): Linear(in_features=288, out_features=288, bias=True)
      )
      (multihead_attn): MultiheadAttention(
        (out_proj): Linear(in_features=288, out_features=288, bias=True)
      )
      (linear1): Linear(in_features=288, out_features=2048, bias=True)
      (dropout): Dropout(p=0.1, inplace=False)
      (linear2): Linear(in_features=2048, out_features=288, bias=True)
      (norm1): LayerNorm((288,), eps=1e-05, elementwise_affine=True)
      (norm2): LayerNorm((288,), eps=1e-05, elementwise_affine=True)
      (norm3): LayerNorm((288,), eps=1e-05, elementwise_affine=True)
      (dropout1): Dropout(p=0.1, inplace=False)
      (dropout2): Dropout(p=0.1, inplace=False)
      (dropout3): Dropout(p=0.1, inplace=False)
      (self_posembed): PositionEmbeddingLearned(
        (position_embedding_head): Sequential(
          (0): Conv1d(6, 288, kernel_size=(1,), stride=(1,))
          (1): BatchNorm1d(288, eps=1e-05, momentum=0.1, affine=True, track_running_stats=True)
          (2): ReLU(inplace=True)
          (3): Conv1d(288, 288, kernel_size=(1,), stride=(1,))
        )
      )
      (cross_posembed): PositionEmbeddingLearned(
        (position_embedding_head): Sequential(
          (0): Conv1d(3, 288, kernel_size=(1,), stride=(1,))
          (1): BatchNorm1d(288, eps=1e-05, momentum=0.1, affine=True, track_running_stats=True)
          (2): ReLU(inplace=True)
          (3): Conv1d(288, 288, kernel_size=(1,), stride=(1,))
        )
      )
    )
    (3): TransformerDecoderLayer(
      (self_attn): MultiheadAttention(
        (out_proj): Linear(in_features=288, out_features=288, bias=True)
      )
      (multihead_attn): MultiheadAttention(
        (out_proj): Linear(in_features=288, out_features=288, bias=True)
      )
      (linear1): Linear(in_features=288, out_features=2048, bias=True)
      (dropout): Dropout(p=0.1, inplace=False)
      (linear2): Linear(in_features=2048, out_features=288, bias=True)
      (norm1): LayerNorm((288,), eps=1e-05, elementwise_affine=True)
      (norm2): LayerNorm((288,), eps=1e-05, elementwise_affine=True)
      (norm3): LayerNorm((288,), eps=1e-05, elementwise_affine=True)
      (dropout1): Dropout(p=0.1, inplace=False)
      (dropout2): Dropout(p=0.1, inplace=False)
      (dropout3): Dropout(p=0.1, inplace=False)
      (self_posembed): PositionEmbeddingLearned(
        (position_embedding_head): Sequential(
          (0): Conv1d(6, 288, kernel_size=(1,), stride=(1,))
          (1): BatchNorm1d(288, eps=1e-05, momentum=0.1, affine=True, track_running_stats=True)
          (2): ReLU(inplace=True)
          (3): Conv1d(288, 288, kernel_size=(1,), stride=(1,))
        )
      )
      (cross_posembed): PositionEmbeddingLearned(
        (position_embedding_head): Sequential(
          (0): Conv1d(3, 288, kernel_size=(1,), stride=(1,))
          (1): BatchNorm1d(288, eps=1e-05, momentum=0.1, affine=True, track_running_stats=True)
          (2): ReLU(inplace=True)
          (3): Conv1d(288, 288, kernel_size=(1,), stride=(1,))
        )
      )
    )
    (4): TransformerDecoderLayer(
      (self_attn): MultiheadAttention(
        (out_proj): Linear(in_features=288, out_features=288, bias=True)
      )
      (multihead_attn): MultiheadAttention(
        (out_proj): Linear(in_features=288, out_features=288, bias=True)
      )
      (linear1): Linear(in_features=288, out_features=2048, bias=True)
      (dropout): Dropout(p=0.1, inplace=False)
      (linear2): Linear(in_features=2048, out_features=288, bias=True)
      (norm1): LayerNorm((288,), eps=1e-05, elementwise_affine=True)
      (norm2): LayerNorm((288,), eps=1e-05, elementwise_affine=True)
      (norm3): LayerNorm((288,), eps=1e-05, elementwise_affine=True)
      (dropout1): Dropout(p=0.1, inplace=False)
      (dropout2): Dropout(p=0.1, inplace=False)
      (dropout3): Dropout(p=0.1, inplace=False)
      (self_posembed): PositionEmbeddingLearned(
        (position_embedding_head): Sequential(
          (0): Conv1d(6, 288, kernel_size=(1,), stride=(1,))
          (1): BatchNorm1d(288, eps=1e-05, momentum=0.1, affine=True, track_running_stats=True)
          (2): ReLU(inplace=True)
          (3): Conv1d(288, 288, kernel_size=(1,), stride=(1,))
        )
      )
      (cross_posembed): PositionEmbeddingLearned(
        (position_embedding_head): Sequential(
          (0): Conv1d(3, 288, kernel_size=(1,), stride=(1,))
          (1): BatchNorm1d(288, eps=1e-05, momentum=0.1, affine=True, track_running_stats=True)
          (2): ReLU(inplace=True)
          (3): Conv1d(288, 288, kernel_size=(1,), stride=(1,))
        )
      )
    )
    (5): TransformerDecoderLayer(
      (self_attn): MultiheadAttention(
        (out_proj): Linear(in_features=288, out_features=288, bias=True)
      )
      (multihead_attn): MultiheadAttention(
        (out_proj): Linear(in_features=288, out_features=288, bias=True)
      )
      (linear1): Linear(in_features=288, out_features=2048, bias=True)
      (dropout): Dropout(p=0.1, inplace=False)
      (linear2): Linear(in_features=2048, out_features=288, bias=True)
      (norm1): LayerNorm((288,), eps=1e-05, elementwise_affine=True)
      (norm2): LayerNorm((288,), eps=1e-05, elementwise_affine=True)
      (norm3): LayerNorm((288,), eps=1e-05, elementwise_affine=True)
      (dropout1): Dropout(p=0.1, inplace=False)
      (dropout2): Dropout(p=0.1, inplace=False)
      (dropout3): Dropout(p=0.1, inplace=False)
      (self_posembed): PositionEmbeddingLearned(
        (position_embedding_head): Sequential(
          (0): Conv1d(6, 288, kernel_size=(1,), stride=(1,))
          (1): BatchNorm1d(288, eps=1e-05, momentum=0.1, affine=True, track_running_stats=True)
          (2): ReLU(inplace=True)
          (3): Conv1d(288, 288, kernel_size=(1,), stride=(1,))
        )
      )
      (cross_posembed): PositionEmbeddingLearned(
        (position_embedding_head): Sequential(
          (0): Conv1d(3, 288, kernel_size=(1,), stride=(1,))
          (1): BatchNorm1d(288, eps=1e-05, momentum=0.1, affine=True, track_running_stats=True)
          (2): ReLU(inplace=True)
          (3): Conv1d(288, 288, kernel_size=(1,), stride=(1,))
        )
      )
    )
  )
  (prediction_heads): ModuleList(
    (0): PredictHead(
      (conv1): Conv1d(288, 288, kernel_size=(1,), stride=(1,))
      (bn1): BatchNorm1d(288, eps=1e-05, momentum=0.1, affine=True, track_running_stats=True)
      (conv2): Conv1d(288, 288, kernel_size=(1,), stride=(1,))
      (bn2): BatchNorm1d(288, eps=1e-05, momentum=0.1, affine=True, track_running_stats=True)
      (objectness_scores_head): Conv1d(288, 1, kernel_size=(1,), stride=(1,))
      (center_residual_head): Conv1d(288, 3, kernel_size=(1,), stride=(1,))
      (heading_class_head): Conv1d(288, 1, kernel_size=(1,), stride=(1,))
      (heading_residual_head): Conv1d(288, 1, kernel_size=(1,), stride=(1,))
      (size_class_head): Conv1d(288, 22, kernel_size=(1,), stride=(1,))
      (size_residual_head): Conv1d(288, 66, kernel_size=(1,), stride=(1,))
      (sem_cls_scores_head): Conv1d(288, 22, kernel_size=(1,), stride=(1,))
    )
    (1): PredictHead(
      (conv1): Conv1d(288, 288, kernel_size=(1,), stride=(1,))
      (bn1): BatchNorm1d(288, eps=1e-05, momentum=0.1, affine=True, track_running_stats=True)
      (conv2): Conv1d(288, 288, kernel_size=(1,), stride=(1,))
      (bn2): BatchNorm1d(288, eps=1e-05, momentum=0.1, affine=True, track_running_stats=True)
      (objectness_scores_head): Conv1d(288, 1, kernel_size=(1,), stride=(1,))
      (center_residual_head): Conv1d(288, 3, kernel_size=(1,), stride=(1,))
      (heading_class_head): Conv1d(288, 1, kernel_size=(1,), stride=(1,))
      (heading_residual_head): Conv1d(288, 1, kernel_size=(1,), stride=(1,))
      (size_class_head): Conv1d(288, 22, kernel_size=(1,), stride=(1,))
      (size_residual_head): Conv1d(288, 66, kernel_size=(1,), stride=(1,))
      (sem_cls_scores_head): Conv1d(288, 22, kernel_size=(1,), stride=(1,))
    )
    (2): PredictHead(
      (conv1): Conv1d(288, 288, kernel_size=(1,), stride=(1,))
      (bn1): BatchNorm1d(288, eps=1e-05, momentum=0.1, affine=True, track_running_stats=True)
      (conv2): Conv1d(288, 288, kernel_size=(1,), stride=(1,))
      (bn2): BatchNorm1d(288, eps=1e-05, momentum=0.1, affine=True, track_running_stats=True)
      (objectness_scores_head): Conv1d(288, 1, kernel_size=(1,), stride=(1,))
      (center_residual_head): Conv1d(288, 3, kernel_size=(1,), stride=(1,))
      (heading_class_head): Conv1d(288, 1, kernel_size=(1,), stride=(1,))
      (heading_residual_head): Conv1d(288, 1, kernel_size=(1,), stride=(1,))
      (size_class_head): Conv1d(288, 22, kernel_size=(1,), stride=(1,))
      (size_residual_head): Conv1d(288, 66, kernel_size=(1,), stride=(1,))
      (sem_cls_scores_head): Conv1d(288, 22, kernel_size=(1,), stride=(1,))
    )
    (3): PredictHead(
      (conv1): Conv1d(288, 288, kernel_size=(1,), stride=(1,))
      (bn1): BatchNorm1d(288, eps=1e-05, momentum=0.1, affine=True, track_running_stats=True)
      (conv2): Conv1d(288, 288, kernel_size=(1,), stride=(1,))
      (bn2): BatchNorm1d(288, eps=1e-05, momentum=0.1, affine=True, track_running_stats=True)
      (objectness_scores_head): Conv1d(288, 1, kernel_size=(1,), stride=(1,))
      (center_residual_head): Conv1d(288, 3, kernel_size=(1,), stride=(1,))
      (heading_class_head): Conv1d(288, 1, kernel_size=(1,), stride=(1,))
      (heading_residual_head): Conv1d(288, 1, kernel_size=(1,), stride=(1,))
      (size_class_head): Conv1d(288, 22, kernel_size=(1,), stride=(1,))
      (size_residual_head): Conv1d(288, 66, kernel_size=(1,), stride=(1,))
      (sem_cls_scores_head): Conv1d(288, 22, kernel_size=(1,), stride=(1,))
    )
    (4): PredictHead(
      (conv1): Conv1d(288, 288, kernel_size=(1,), stride=(1,))
      (bn1): BatchNorm1d(288, eps=1e-05, momentum=0.1, affine=True, track_running_stats=True)
      (conv2): Conv1d(288, 288, kernel_size=(1,), stride=(1,))
      (bn2): BatchNorm1d(288, eps=1e-05, momentum=0.1, affine=True, track_running_stats=True)
      (objectness_scores_head): Conv1d(288, 1, kernel_size=(1,), stride=(1,))
      (center_residual_head): Conv1d(288, 3, kernel_size=(1,), stride=(1,))
      (heading_class_head): Conv1d(288, 1, kernel_size=(1,), stride=(1,))
      (heading_residual_head): Conv1d(288, 1, kernel_size=(1,), stride=(1,))
      (size_class_head): Conv1d(288, 22, kernel_size=(1,), stride=(1,))
      (size_residual_head): Conv1d(288, 66, kernel_size=(1,), stride=(1,))
      (sem_cls_scores_head): Conv1d(288, 22, kernel_size=(1,), stride=(1,))
    )
    (5): PredictHead(
      (conv1): Conv1d(288, 288, kernel_size=(1,), stride=(1,))
      (bn1): BatchNorm1d(288, eps=1e-05, momentum=0.1, affine=True, track_running_stats=True)
      (conv2): Conv1d(288, 288, kernel_size=(1,), stride=(1,))
      (bn2): BatchNorm1d(288, eps=1e-05, momentum=0.1, affine=True, track_running_stats=True)
      (objectness_scores_head): Conv1d(288, 1, kernel_size=(1,), stride=(1,))
      (center_residual_head): Conv1d(288, 3, kernel_size=(1,), stride=(1,))
      (heading_class_head): Conv1d(288, 1, kernel_size=(1,), stride=(1,))
      (heading_residual_head): Conv1d(288, 1, kernel_size=(1,), stride=(1,))
      (size_class_head): Conv1d(288, 22, kernel_size=(1,), stride=(1,))
      (size_residual_head): Conv1d(288, 66, kernel_size=(1,), stride=(1,))
      (sem_cls_scores_head): Conv1d(288, 22, kernel_size=(1,), stride=(1,))
    )
  )
)
[09/23 16:09:22] eval INFO: => loading checkpoint 'log_GF_WSB/group_free/scannet_1662445589/1980743/ckpt_epoch_200.pth'
[09/23 16:09:30] eval INFO: => loaded successfully 'log_GF_WSB/group_free/scannet_1662445589/1980743/ckpt_epoch_200.pth' (epoch 200)
[09/23 16:09:40] eval INFO: Let's use 4 GPUs!
[09/23 16:09:40] eval INFO: 2022-09-23 16:09:40.049092
…
